…
extract the null data: 100%|██████████| 71/71 [00:00<00:00, 681.72it/s]
# check | video data : 11014, 0D data : 11014
train data : 36135, disrupt : 860, non-disrupt : 35275
valid data : 9035, disrupt : 216, non-disrupt : 8819
test data : 11014, disrupt : 276, non-disrupt : 10738

################# model summary #################

-----------------------------------------------------------------------------------
             Layer (type)              Input Shape         Param #     Tr. Param #
===================================================================================
           ViViTEncoder-1     [8, 3, 21, 128, 128]       3,429,888       3,429,888
   TStransformerEncoder-2              [8, 21, 12]         794,752         794,752
                 Linear-3                 [8, 256]          32,896          32,896
            BatchNorm1d-4                 [8, 128]             256             256
                   ReLU-5                 [8, 128]               0               0
                 Linear-6                 [8, 128]             258             258
===================================================================================
Total params: 4,258,050
Trainable params: 4,258,050
Non-trainable params: 0
-----------------------------------------------------------------------------------

################# training process #################


training process:   0%|          | 0/128 [00:00<?, ?it/s]
training process:   1%|          | 1/128 [06:11<13:07:16, 371.94s/it]epoch : 1, train loss : 0.012, valid loss : 0.014, train acc : 0.725, valid acc : 0.511, train f1 : 0.706, valid f1 : 0.376
…
extract the null data:   0%|          | 0/71 [00:00<?, ?it/s]extract the null data:  82%|████████▏ | 58/71 [00:00<00:00, 579.13it/s]extract the null data: 100%|██████████| 71/71 [00:00<00:00, 578.57it/s]
# check | video data : 11053, 0D data : 11053
train data : 36258, disrupt : 860, non-disrupt : 35398
valid data : 9065, disrupt : 216, non-disrupt : 8849
test data : 11053, disrupt : 276, non-disrupt : 10777

################# model summary #################

----------------------------------------------------------------------------
      Layer (type)              Input Shape         Param #     Tr. Param #
============================================================================
           ViViT-1     [8, 3, 21, 128, 128]       3,438,402       3,438,402
   TStransformer-2              [8, 21, 12]         811,778         811,778
          Linear-3                 [8, 256]          32,896          32,896
     BatchNorm1d-4                 [8, 128]             256             256
            ReLU-5                 [8, 128]               0               0
          Linear-6                 [8, 128]             258             258
============================================================================
Total params: 4,283,590
Trainable params: 4,283,590
Non-trainable params: 0
----------------------------------------------------------------------------

################# training process #################

(multi-modal) training process with Gradient Blending:   0%|          | 0/128 [00:00<?, ?it/s]./exp_multi.sh: line 12: 3165114 Killed                  python3 train_multimodal.py --gpu_num 0 --dist 4 --use_GB True
…
