…
torch current device :  0
torch device num :  4
train data : 13463, disrupt : 227, non-disrupt : 13236
valid data : 3124, disrupt : 57, non-disrupt : 3067
test data : 3890, disrupt : 71, non-disrupt : 3819

################# model summary #################

-------------------------------------------------------------------------------------------------
        Parent Layers       Layer (type)              Input Shape         Param #     Tr. Param #
=================================================================================================
   R2Plus1DClassifier      R2Plus1DNet-1     [8, 3, 21, 128, 128]       1,579,009       1,579,009
   R2Plus1DClassifier           Linear-2                 [8, 128]           8,256           8,256
   R2Plus1DClassifier      BatchNorm1d-3                  [8, 64]             128             128
   R2Plus1DClassifier              ELU-4                  [8, 64]               0               0
   R2Plus1DClassifier           Linear-5                  [8, 64]             130             130
=================================================================================================
Total params: 1,587,523
Trainable params: 1,587,523
Non-trainable params: 0
-------------------------------------------------------------------------------------------------

################# training process #################


training process:   0%|          | 0/128 [00:00<?, ?it/s]
…
100%|██████████| 173/173 [00:01<00:00, 123.52it/s]

training process:  23%|██▎       | 30/128 [2:28:58<8:19:40, 305.93s/it]train data : 22965, disrupt : 1782, non-disrupt : 21183
valid data : 5566, disrupt : 446, non-disrupt : 5120
test data : 7131, disrupt : 560, non-disrupt : 6571

################# model summary #################

-----------------------------------------------------------------------------------
           Layer (type)                Input Shape         Param #     Tr. Param #
===================================================================================
           NoiseLayer-1                [2, 21, 12]               0               0
               Linear-2                [2, 21, 12]           1,664           1,664
   PositionalEncoding-3               [21, 2, 128]               0               0
   TransformerEncoder-4     [21, 2, 128], [21, 21]         793,088         793,088
               Linear-5                   [2, 128]          16,512          16,512
          BatchNorm1d-6                   [2, 128]             256             256
                 GELU-7                   [2, 128]               0               0
               Linear-8                   [2, 128]             258             258
===================================================================================
Total params: 811,778
Trainable params: 811,778
Non-trainable params: 0
Batch size: 2
-----------------------------------------------------------------------------------

################# training process #################


training process:   0%|          | 0/128 [00:00<?, ?it/s]
training process:  13%|█▎        | 17/128 [2:19:11<15:13:13, 493.64s/it]epoch : 17, train loss : 0.001, valid loss : 0.004, train acc : 0.980, valid acc : 0.993, train f1 : 0.980, valid f1 : 0.914
…
torch device avaliable :  True
torch current device :  0
torch device num :  4
train data : 13457, disrupt : 227, non-disrupt : 13230
valid data : 3122, disrupt : 57, non-disrupt : 3065
test data : 3886, disrupt : 71, non-disrupt : 3815

################# model summary #################

--------------------------------------------------------------------------------------------
   Parent Layers       Layer (type)              Input Shape         Param #     Tr. Param #
============================================================================================
           ViViT        Rearrange-1     [8, 21, 3, 128, 128]               0               0
           ViViT           Linear-2         [8, 21, 64, 768]          98,432          98,432
           ViViT          Dropout-3         [8, 21, 65, 128]               0               0
           ViViT      Transformer-4           [168, 65, 128]       1,578,240       1,578,240
           ViViT      Transformer-5             [8, 22, 128]       1,578,240       1,578,240
           ViViT           Linear-6                 [8, 128]           8,256           8,256
           ViViT        LayerNorm-7                  [8, 64]             128             128
           ViViT              ELU-8                  [8, 64]               0               0
           ViViT           Linear-9                  [8, 64]             130             130
============================================================================================
Total params: 3,263,426
Trainable params: 3,263,426
Non-trainable params: 0
--------------------------------------------------------------------------------------------

################# training process #################


training process:   0%|          | 0/128 [00:00<?, ?it/s]
…
train data : 14134, disrupt : 227, non-disrupt : 13907
valid data : 3279, disrupt : 57, non-disrupt : 3222
test data : 4085, disrupt : 71, non-disrupt : 4014

################# model summary #################

---------------------------------------------------------------------------------------------------------------
                      Parent Layers       Layer (type)              Input Shape         Param #     Tr. Param #
===============================================================================================================
   SlowFast/SlowFastEncoder/FastNet           Conv3d-1     [8, 3, 20, 128, 128]             592             592
   SlowFast/SlowFastEncoder/FastNet      BatchNorm3d-2       [8, 4, 20, 64, 64]               8               8
   SlowFast/SlowFastEncoder/FastNet             ReLU-3       [8, 4, 20, 64, 64]               0               0
   SlowFast/SlowFastEncoder/FastNet        MaxPool3d-4       [8, 4, 20, 64, 64]               0               0
   SlowFast/SlowFastEncoder/FastNet           Conv3d-5       [8, 4, 20, 32, 32]              96              96
   SlowFast/SlowFastEncoder/FastNet     Bottleneck3D-6       [8, 4, 20, 32, 32]             476             476
   SlowFast/SlowFastEncoder/FastNet           Conv3d-7      [8, 16, 20, 32, 32]           1,536           1,536
   SlowFast/SlowFastEncoder/FastNet     Bottleneck3D-8      [8, 16, 20, 32, 32]           2,032           2,032
   SlowFast/SlowFastEncoder/FastNet     Bottleneck3D-9      [8, 32, 20, 16, 16]           1,840           1,840
   SlowFast/SlowFastEncoder/FastNet          Conv3d-10      [8, 32, 20, 16, 16]           6,144           6,144
   SlowFast/SlowFastEncoder/FastNet    Bottleneck3D-11      [8, 32, 20, 16, 16]           7,512           7,512
   SlowFast/SlowFastEncoder/FastNet    Bottleneck3D-12        [8, 64, 20, 8, 8]           6,872           6,872
   SlowFast/SlowFastEncoder/FastNet          Conv3d-13        [8, 64, 20, 8, 8]          24,576          24,576
   SlowFast/SlowFastEncoder/FastNet    Bottleneck3D-14        [8, 64, 20, 8, 8]          28,840          28,840
   SlowFast/SlowFastEncoder/SlowNet          Conv3d-15      [8, 3, 5, 128, 128]           2,368           2,368
   SlowFast/SlowFastEncoder/SlowNet     BatchNorm3d-16       [8, 16, 5, 64, 64]              32              32
   SlowFast/SlowFastEncoder/SlowNet            ReLU-17       [8, 16, 5, 64, 64]               0               0
   SlowFast/SlowFastEncoder/SlowNet       MaxPool3d-18       [8, 16, 5, 64, 64]               0               0
   SlowFast/SlowFastEncoder/SlowNet    Bottleneck3D-19       [8, 20, 5, 32, 32]           5,528           5,528
   SlowFast/SlowFastEncoder/SlowNet    Bottleneck3D-20       [8, 80, 5, 32, 32]          27,304          27,304
   SlowFast/SlowFastEncoder/SlowNet    Bottleneck3D-21      [8, 128, 5, 16, 16]          18,344          18,344
   SlowFast/SlowFastEncoder/SlowNet    Bottleneck3D-22      [8, 160, 5, 16, 16]         127,304         127,304
   SlowFast/SlowFastEncoder/SlowNet    Bottleneck3D-23        [8, 256, 5, 8, 8]         104,264         104,264
   SlowFast/SlowFastEncoder/SlowNet    Bottleneck3D-24        [8, 320, 5, 8, 8]         504,456         504,456
        SlowFast/SlowFastClassifier          Linear-25                 [8, 640]         205,120         205,120
        SlowFast/SlowFastClassifier     BatchNorm1d-26                 [8, 320]             640             640
        SlowFast/SlowFastClassifier             ELU-27                 [8, 320]               0               0
        SlowFast/SlowFastClassifier          Linear-28                 [8, 320]             642             642
===============================================================================================================
Total params: 1,076,526
Trainable params: 1,076,526
Non-trainable params: 0
---------------------------------------------------------------------------------------------------------------

################# training process #################


training process:   0%|          | 0/128 [00:00<?, ?it/s]
…
