############### device setup ###################
torch device avaliable :  True
torch current device :  0
torch device num :  4
train data : 11930, disrupt : 122, non-disrupt : 11808
valid data : 2541, disrupt : 31, non-disrupt : 2510
test data : 3330, disrupt : 39, non-disrupt : 3291

################# model summary #################

----------------------------------------------------------------------------
      Layer (type)              Input Shape         Param #     Tr. Param #
============================================================================
       Rearrange-1     [8, 21, 3, 256, 256]               0               0
          Linear-2        [8, 21, 256, 768]          98,432          98,432
         Dropout-3        [8, 21, 257, 128]               0               0
     Transformer-4          [168, 257, 128]       1,578,240       1,578,240
     Transformer-5             [8, 22, 128]       1,578,240       1,578,240
       LayerNorm-6                 [8, 128]             256             256
          Linear-7                 [8, 128]             258             258
============================================================================
Total params: 3,255,426
Trainable params: 3,255,426
Non-trainable params: 0
----------------------------------------------------------------------------

################# training process #################

training process:   0%|          | 0/128 [00:00<?, ?it/s]Traceback (most recent call last):
  File "/home/jinsukim/codes_for_study/research-predict-disruption/train_vision_network.py", line 6, in <module>
…
extract the null data:   0%|          | 0/39 [00:00<?, ?it/s]extract the null data: 100%|██████████| 39/39 [00:00<00:00, 692.78it/s]
# check | video data : 10060, 0D data : 10060
train data : 35989, disrupt : 485, non-disrupt : 35504
valid data : 7675, disrupt : 124, non-disrupt : 7551
test data : 10060, disrupt : 156, non-disrupt : 9904

################# model summary #################

-----------------------------------------------------------------------------------
             Layer (type)              Input Shape         Param #     Tr. Param #
===================================================================================
           ViViTEncoder-1     [8, 3, 21, 128, 128]       3,429,888       3,429,888
   TStransformerEncoder-2               [8, 21, 9]       1,785,728       1,785,728
                 Linear-3                 [8, 256]          32,896          32,896
            BatchNorm1d-4                 [8, 128]             256             256
                   ReLU-5                 [8, 128]               0               0
                 Linear-6                 [8, 128]             258             258
===================================================================================
Total params: 5,249,026
Trainable params: 5,249,026
Non-trainable params: 0
-----------------------------------------------------------------------------------

################# training process #################

training process:   0%|          | 0/128 [00:00<?, ?it/s]training process:   1%|          | 1/128 [04:43<10:00:56, 283.91s/it]epoch : 1, train loss : 0.004, valid loss : 0.003, train acc : 0.915, valid acc : 0.802, train f1 : 0.915, valid f1 : 0.513
…
