…
extract the null data:   0%|          | 0/71 [00:00<?, ?it/s]extract the null data:  97%|█████████▋| 69/71 [00:00<00:00, 685.87it/s]extract the null data: 100%|██████████| 71/71 [00:00<00:00, 684.23it/s]
# check | video data : 11083, 0D data : 11083
train data : 36350, disrupt : 860, non-disrupt : 35490
valid data : 9089, disrupt : 216, non-disrupt : 8873
test data : 11083, disrupt : 276, non-disrupt : 10807

################# model summary #################

-----------------------------------------------------------------------------------
             Layer (type)              Input Shape         Param #     Tr. Param #
===================================================================================
           ViViTEncoder-1     [8, 3, 21, 128, 128]       3,429,888       3,429,888
   TStransformerEncoder-2              [8, 21, 11]         794,624         794,624
                 Linear-3                 [8, 256]          32,896          32,896
            BatchNorm1d-4                 [8, 128]             256             256
                   ReLU-5                 [8, 128]               0               0
                 Linear-6                 [8, 128]             258             258
===================================================================================
Total params: 4,257,922
Trainable params: 4,257,922
Non-trainable params: 0
-----------------------------------------------------------------------------------

################# training process #################

training process:   0%|          | 0/128 [00:00<?, ?it/s]training process:   1%|          | 1/128 [06:08<13:00:29, 368.74s/it]epoch : 1, train loss : 0.004, valid loss : 0.002, train acc : 0.911, valid acc : 0.945, train f1 : 0.910, valid f1 : 0.712
…
extract the null data:   0%|          | 0/71 [00:00<?, ?it/s]extract the null data:  79%|███████▉  | 56/71 [00:00<00:00, 556.19it/s]extract the null data: 100%|██████████| 71/71 [00:00<00:00, 561.85it/s]
# check | video data : 11083, 0D data : 11083
train data : 36350, disrupt : 860, non-disrupt : 35490
valid data : 9089, disrupt : 216, non-disrupt : 8873
test data : 11083, disrupt : 276, non-disrupt : 10807

################# model summary #################

----------------------------------------------------------------------------
      Layer (type)              Input Shape         Param #     Tr. Param #
============================================================================
           ViViT-1     [8, 3, 21, 128, 128]       3,438,402       3,438,402
   TStransformer-2              [8, 21, 11]         811,650         811,650
          Linear-3                 [8, 256]          32,896          32,896
     BatchNorm1d-4                 [8, 128]             256             256
            ReLU-5                 [8, 128]               0               0
          Linear-6                 [8, 128]             258             258
============================================================================
Total params: 4,283,462
Trainable params: 4,283,462
Non-trainable params: 0
----------------------------------------------------------------------------

################# training process #################

(multi-modal) training process with Gradient Blending:   0%|          | 0/128 [00:00<?, ?it/s]training process:  18%|█▊        | 23/128 [2:20:49<11:00:34, 377.47s/it](multi-modal) training process with Gradient Blending:   1%|          | 1/128 [10:59<23:16:18, 659.68s/it]# epoch: 1, train loss: 0.010, valid loss: 0.007
…
extract the null data:   0%|          | 0/71 [00:00<?, ?it/s]extract the null data:  75%|███████▍  | 53/71 [00:00<00:00, 521.75it/s]extract the null data: 100%|██████████| 71/71 [00:00<00:00, 527.23it/s]
# check | video data : 11070, 0D data : 11070
train data : 36324, disrupt : 860, non-disrupt : 35464
valid data : 9083, disrupt : 216, non-disrupt : 8867
test data : 11070, disrupt : 276, non-disrupt : 10794

################# model summary #################

-----------------------------------------------------------------------------------
             Layer (type)              Input Shape         Param #     Tr. Param #
===================================================================================
           ViViTEncoder-1     [8, 3, 21, 128, 128]       3,429,888       3,429,888
   TStransformerEncoder-2              [8, 21, 12]         794,752         794,752
                 Linear-3                 [8, 256]          32,896          32,896
            BatchNorm1d-4                 [8, 128]             256             256
                   ReLU-5                 [8, 128]               0               0
                 Linear-6                 [8, 128]             258             258
===================================================================================
Total params: 4,258,050
Trainable params: 4,258,050
Non-trainable params: 0
-----------------------------------------------------------------------------------

################# training process #################

training process:   0%|          | 0/128 [00:00<?, ?it/s]training process:   1%|          | 1/128 [09:55<21:01:24, 595.94s/it]epoch : 1, train loss : 0.004, valid loss : 0.005, train acc : 0.905, valid acc : 0.904, train f1 : 0.904, valid f1 : 0.639
…
extract the null data:   0%|          | 0/71 [00:00<?, ?it/s]extract the null data:  80%|████████  | 57/71 [00:00<00:00, 565.47it/s]extract the null data: 100%|██████████| 71/71 [00:00<00:00, 561.63it/s]
# check | video data : 11070, 0D data : 11070
train data : 36324, disrupt : 860, non-disrupt : 35464
valid data : 9083, disrupt : 216, non-disrupt : 8867
test data : 11070, disrupt : 276, non-disrupt : 10794

################# model summary #################

----------------------------------------------------------------------------
      Layer (type)              Input Shape         Param #     Tr. Param #
============================================================================
           ViViT-1     [8, 3, 21, 128, 128]       3,438,402       3,438,402
   TStransformer-2              [8, 21, 12]         811,778         811,778
          Linear-3                 [8, 256]          32,896          32,896
     BatchNorm1d-4                 [8, 128]             256             256
            ReLU-5                 [8, 128]               0               0
          Linear-6                 [8, 128]             258             258
============================================================================
Total params: 4,283,590
Trainable params: 4,283,590
Non-trainable params: 0
----------------------------------------------------------------------------

################# training process #################

(multi-modal) training process with Gradient Blending:   0%|          | 0/128 [00:00<?, ?it/s]training process:  78%|███████▊  | 100/128 [12:59:41<3:14:47, 417.42s/it]training process:  79%|███████▉  | 101/128 [13:06:40<3:08:02, 417.88s/it]epoch : 101, train loss : 0.000, valid loss : 0.004, train acc : 0.999, valid acc : 0.991, train f1 : 0.999, valid f1 : 0.916
…
, 102.40it/s]100%|██████████| 173/173 [00:01<00:00, 109.12it/s]
train data : 22973, disrupt : 1704, non-disrupt : 21269
valid data : 5570, disrupt : 428, non-disrupt : 5142
test data : 7132, disrupt : 533, non-disrupt : 6599

################# model summary #################

-------------------------------------------------------------------------------------------
      Layer (type)                             Input Shape         Param #     Tr. Param #
===========================================================================================
      NoiseLayer-1                             [1, 21, 12]               0               0
          Conv1d-2                             [1, 12, 21]           1,184           1,184
          Conv1d-3                             [1, 32, 21]           3,104           3,104
     BatchNorm1d-4                             [1, 32, 21]              64              64
            ReLU-5                             [1, 32, 21]               0               0
            LSTM-6     [32, 1, 21], [4, 1, 64], [4, 1, 64]         143,872         143,872
          Linear-7                            [1, 32, 128]           8,256           8,256
          Linear-8                             [1, 32, 64]           4,160           4,160
          Linear-9                                [1, 128]           8,256           8,256
    BatchNorm1d-10                                 [1, 64]             128             128
           ReLU-11                                 [1, 64]               0               0
         Linear-12                                 [1, 64]             130             130
===========================================================================================
Total params: 169,154
Trainable params: 169,154
Non-trainable params: 0
-------------------------------------------------------------------------------------------

################# training process #################

training process:   0%|          | 0/128 [00:00<?, ?it/s]training process:   1%|          | 1/128 [01:02<2:13:17, 62.97s/it]epoch : 1, train loss : 0.038, valid loss : 0.028, train acc : 0.545, valid acc : 0.142, train f1 : 0.446, valid f1 : 0.142
…
