…
############### device setup ###################
torch device avaliable :  True
torch current device :  0
torch device num :  4
train data : 11923, disrupt : 122, non-disrupt : 11801
valid data : 2541, disrupt : 31, non-disrupt : 2510
test data : 3329, disrupt : 39, non-disrupt : 3290

################# model summary #################

----------------------------------------------------------------------------
      Layer (type)              Input Shape         Param #     Tr. Param #
============================================================================
       Rearrange-1     [8, 21, 3, 256, 256]               0               0
          Linear-2        [8, 21, 256, 768]          98,432          98,432
         Dropout-3        [8, 21, 257, 128]               0               0
     Transformer-4          [168, 257, 128]       1,578,240       1,578,240
     Transformer-5             [8, 22, 128]       1,578,240       1,578,240
       LayerNorm-6                 [8, 128]             256             256
          Linear-7                 [8, 128]             258             258
============================================================================
Total params: 3,255,426
Trainable params: 3,255,426
Non-trainable params: 0
----------------------------------------------------------------------------

################# training process #################


training process:   0%|          | 0/128 [00:00<?, ?it/s]
training process:   0%|          | 0/128 [00:03<?, ?it/s]
…
############### device setup ###################
torch device avaliable :  True
torch current device :  0
torch device num :  4
train data : 11923, disrupt : 122, non-disrupt : 11801
valid data : 2541, disrupt : 31, non-disrupt : 2510
test data : 3329, disrupt : 39, non-disrupt : 3290

################# model summary #################

----------------------------------------------------------------------------
      Layer (type)              Input Shape         Param #     Tr. Param #
============================================================================
       Rearrange-1     [8, 21, 3, 128, 128]               0               0
          Linear-2         [8, 21, 64, 768]          98,432          98,432
         Dropout-3         [8, 21, 65, 128]               0               0
     Transformer-4           [168, 65, 128]       1,578,240       1,578,240
     Transformer-5             [8, 22, 128]       1,578,240       1,578,240
       LayerNorm-6                 [8, 128]             256             256
          Linear-7                 [8, 128]             258             258
============================================================================
Total params: 3,255,426
Trainable params: 3,255,426
Non-trainable params: 0
----------------------------------------------------------------------------

################# training process #################


training process:   0%|          | 0/128 [00:00<?, ?it/s]
training process:   1%|          | 1/128 [02:32<5:23:33, 152.86s/it]epoch : 1, train loss : 0.005, valid loss : 0.004, train acc : 0.762, valid acc : 0.797, train f1 : 0.748, valid f1 : 0.495
…
 94%|█████████▍| 163/173 [00:00<00:00, 155.85it/s]
100%|██████████| 173/173 [00:01<00:00, 156.25it/s]
train data : 22947, disrupt : 1843, non-disrupt : 21104
valid data : 5558, disrupt : 459, non-disrupt : 5099
test data : 7124, disrupt : 571, non-disrupt : 6553

################# model summary #################

-----------------------------------------------------------------------------------
           Layer (type)                Input Shape         Param #     Tr. Param #
===================================================================================
           NoiseLayer-1                [2, 21, 12]               0               0
               Linear-2                [2, 21, 12]           1,664           1,664
   PositionalEncoding-3               [21, 2, 128]               0               0
   TransformerEncoder-4     [21, 2, 128], [21, 21]         793,088         793,088
               Linear-5                   [2, 128]          16,512          16,512
          BatchNorm1d-6                   [2, 128]             256             256
                 GELU-7                   [2, 128]               0               0
               Linear-8                   [2, 128]             258             258
===================================================================================
Total params: 811,778
Trainable params: 811,778
Non-trainable params: 0
Batch size: 2
-----------------------------------------------------------------------------------

################# training process #################


training process:   0%|          | 0/128 [00:00<?, ?it/s]
training process:   1%|          | 1/128 [01:01<2:10:44, 61.77s/it]epoch : 1, train loss : 0.036, valid loss : 0.044, train acc : 0.673, valid acc : 0.184, train f1 : 0.651, valid f1 : 0.183
…
extract the null data:   0%|          | 0/122 [00:00<?, ?it/s]extract the null data:  47%|████▋     | 57/122 [00:00<00:00, 560.54it/s]extract the null data:  95%|█████████▌| 116/122 [00:00<00:00, 572.10it/s]extract the null data: 100%|██████████| 122/122 [00:00<00:00, 566.95it/s]
# check | video data : 10060, 0D data : 10060
train data : 35989, disrupt : 485, non-disrupt : 35504
valid data : 7675, disrupt : 124, non-disrupt : 7551
test data : 10060, disrupt : 156, non-disrupt : 9904

################# model summary #################

-----------------------------------------------------------------------------------
             Layer (type)              Input Shape         Param #     Tr. Param #
===================================================================================
           ViViTEncoder-1     [8, 3, 21, 128, 128]       3,429,888       3,429,888
   TStransformerEncoder-2               [8, 21, 9]         992,640         992,640
                 Linear-3                 [8, 256]          32,896          32,896
            BatchNorm1d-4                 [8, 128]             256             256
                   ReLU-5                 [8, 128]               0               0
                 Linear-6                 [8, 128]             258             258
===================================================================================
Total params: 4,455,938
Trainable params: 4,455,938
Non-trainable params: 0
-----------------------------------------------------------------------------------

################# training process #################

training process:   0%|          | 0/128 [00:00<?, ?it/s]# check | video data : 35918, 0D data : 35918
…
