…
█████████| 184/184 [00:01<00:00, 94.59it/s] 100%|██████████| 184/184 [00:01<00:00, 106.63it/s]
train data : 29236, disrupt : 1833, non-disrupt : 27403
valid data : 6145, disrupt : 465, non-disrupt : 5680
test data : 9282, disrupt : 564, non-disrupt : 8718

################# model summary #################

-----------------------------------------------------------------------------------
           Layer (type)                Input Shape         Param #     Tr. Param #
===================================================================================
           NoiseLayer-1                 [2, 21, 9]               0               0
               Linear-2                 [2, 21, 9]           1,280           1,280
   PositionalEncoding-3               [21, 2, 128]               0               0
   TransformerEncoder-4     [21, 2, 128], [21, 21]       1,586,176       1,586,176
               Linear-5                   [2, 128]          16,512          16,512
          BatchNorm1d-6                   [2, 128]             256             256
                 GELU-7                   [2, 128]               0               0
               Linear-8                   [2, 128]             258             258
===================================================================================
Total params: 1,604,482
Trainable params: 1,604,482
Non-trainable params: 0
Batch size: 2
-----------------------------------------------------------------------------------

################# training process #################

training process:   0%|          | 0/256 [00:00<?, ?it/s]############### device setup ###################
…
