############### device setup ###################
torch device avaliable :  True
torch current device :  0
torch device num :  4
train data : 11930, disrupt : 122, non-disrupt : 11808
valid data : 2541, disrupt : 31, non-disrupt : 2510
test data : 3330, disrupt : 39, non-disrupt : 3291

################# model summary #################

----------------------------------------------------------------------------
      Layer (type)              Input Shape         Param #     Tr. Param #
============================================================================
       Rearrange-1     [8, 21, 3, 256, 256]               0               0
          Linear-2        [8, 21, 256, 768]          98,432          98,432
         Dropout-3        [8, 21, 257, 128]               0               0
     Transformer-4          [168, 257, 128]       1,578,240       1,578,240
     Transformer-5             [8, 22, 128]       1,578,240       1,578,240
       LayerNorm-6                 [8, 128]             256             256
          Linear-7                 [8, 128]             258             258
============================================================================
Total params: 3,255,426
Trainable params: 3,255,426
Non-trainable params: 0
----------------------------------------------------------------------------

################# training process #################

training process:   0%|          | 0/128 [00:00<?, ?it/s]Traceback (most recent call last):
  File "/home/jinsukim/codes_for_study/research-predict-disruption/train_vision_network.py", line 6, in <module>
…
