…
I :  torch.Size([21, 65, 65])
attention_heads_fused :  torch.Size([21, 65, 65])
I :  torch.Size([21, 65, 65])
attention_heads_fused :  torch.Size([21, 65, 65])
I :  torch.Size([21, 65, 65])
attention_heads_fused :  torch.Size([21, 65, 65])
I :  torch.Size([21, 65, 65])
torch device avaliable :  True
torch current device :  0
torch device num :  4
------------------------------------------------------------------------------
        Layer (type)              Input Shape         Param #     Tr. Param #
==============================================================================
      ViViTEncoder-1     [8, 3, 21, 128, 128]       1,452,800       1,452,800
   ConvLSTMEncoder-2               [8, 21, 9]          21,344          21,344
            Linear-3                [8, 4225]         540,928         540,928
       BatchNorm1d-4                 [8, 128]             256             256
              ReLU-5                 [8, 128]               0               0
            Linear-6                 [8, 128]           8,256           8,256
       BatchNorm1d-7                  [8, 64]             128             128
              ReLU-8                  [8, 64]               0               0
            Linear-9                  [8, 64]             130             130
==============================================================================
Total params: 2,023,842
Trainable params: 2,023,842
Non-trainable params: 0
------------------------------------------------------------------------------
training process:   0%|          | 0/64 [00:00<?, ?it/s]training process:   2%|▏         | 1/64 [00:13<14:36, 13.91s/it]epoch : 1, train loss : 0.036, valid loss : 0.026, train acc : 0.521, valid acc : 0.108, train f1 : 0.429, valid f1 : 0.108
…
