…
torch device num :  4
running : ViViT_clip_21_dist_1_Focal_RS_DRW_seed_40
train data : 14427, disrupt : 227, non-disrupt : 14200
valid data : 3519, disrupt : 57, non-disrupt : 3462
test data : 4062, disrupt : 71, non-disrupt : 3991

################# model summary #################

--------------------------------------------------------------------------------------------
   Parent Layers       Layer (type)              Input Shape         Param #     Tr. Param #
============================================================================================
           ViViT        Rearrange-1     [8, 21, 3, 128, 128]               0               0
           ViViT           Linear-2         [8, 21, 64, 768]          98,432          98,432
           ViViT          Dropout-3         [8, 21, 65, 128]               0               0
           ViViT      Transformer-4           [168, 65, 128]         790,272         790,272
           ViViT      Transformer-5             [8, 22, 128]         790,272         790,272
           ViViT           Linear-6                 [8, 128]           8,256           8,256
           ViViT        LayerNorm-7                  [8, 64]             128             128
           ViViT              ELU-8                  [8, 64]               0               0
           ViViT           Linear-9                  [8, 64]             130             130
============================================================================================
Total params: 1,687,490
Trainable params: 1,687,490
Non-trainable params: 0
--------------------------------------------------------------------------------------------

################# training process #################

training process - Deferred Re-weighting:   0%|          | 0/128 [00:00<?, ?it/s]epoch : 1, train loss : 0.059, valid loss : 0.037, train f1 : 0.890, valid f1 : 0.632
…
