…
:00<00:00, 144.91it/s] 93%|█████████▎| 161/173 [00:01<00:00, 133.12it/s]100%|██████████| 173/173 [00:01<00:00, 132.46it/s]
train data : 22810, disrupt : 1837, non-disrupt : 20973
valid data : 5421, disrupt : 456, non-disrupt : 4965
test data : 7398, disrupt : 580, non-disrupt : 6818

################# model summary #################

----------------------------------------------------------------------------
           Layer (type)         Input Shape         Param #     Tr. Param #
============================================================================
           NoiseLayer-1         [2, 21, 12]               0               0
     SelfAttentionRnn-2         [2, 21, 12]         151,680         151,680
            ConvBlock-3         [2, 12, 21]           2,496           2,496
   SqueezeExciteBlock-4         [2, 64, 19]             512             512
            ConvBlock-5         [2, 64, 19]          24,960          24,960
   SqueezeExciteBlock-6        [2, 128, 17]           2,048           2,048
               Linear-7            [2, 256]          65,792          65,792
               Linear-8            [2, 256]          32,896          32,896
          BatchNorm1d-9            [2, 128]             256             256
           LeakyReLU-10            [2, 128]               0               0
              Linear-11            [2, 128]             258             258
============================================================================
Total params: 280,898
Trainable params: 280,898
Non-trainable params: 0
Batch size: 2
----------------------------------------------------------------------------

################# training process #################

training process:   0%|          | 0/128 [00:00<?, ?it/s]epoch : 1, train loss : 0.574, valid loss : 0.408, train acc : 0.734, valid acc : 0.922, train f1 : 0.532, valid f1 : 0.582
…
