…
|█████████▍| 164/173 [00:01<00:00, 96.80it/s]100%|██████████| 173/173 [00:01<00:00, 105.52it/s]
train data : 22810, disrupt : 1837, non-disrupt : 20973
valid data : 5421, disrupt : 456, non-disrupt : 4965
test data : 7398, disrupt : 580, non-disrupt : 6818

################# model summary #################

-----------------------------------------------------------------------------------
           Layer (type)                Input Shape         Param #     Tr. Param #
===================================================================================
           NoiseLayer-1                [2, 21, 12]               0               0
               Linear-2                [2, 21, 12]           1,664           1,664
   PositionalEncoding-3               [21, 2, 128]               0               0
   TransformerEncoder-4     [21, 2, 128], [21, 21]         793,088         793,088
               Linear-5                   [2, 128]          16,512          16,512
          BatchNorm1d-6                   [2, 128]             256             256
                 GELU-7                   [2, 128]               0               0
               Linear-8                   [2, 128]             258             258
===================================================================================
Total params: 811,778
Trainable params: 811,778
Non-trainable params: 0
Batch size: 2
-----------------------------------------------------------------------------------

################# training process #################

training process:   0%|          | 0/128 [00:00<?, ?it/s]epoch : 1, train loss : 0.604, valid loss : 0.436, train acc : 0.712, valid acc : 0.916, train f1 : 0.538, valid f1 : 0.672
…
