…
:01<00:00, 134.30it/s] 92%|█████████▏| 160/173 [00:01<00:00, 132.71it/s]100%|██████████| 173/173 [00:01<00:00, 126.44it/s]
train data : 22973, disrupt : 1704, non-disrupt : 21269
valid data : 5570, disrupt : 428, non-disrupt : 5142
test data : 7132, disrupt : 533, non-disrupt : 6599

################# model summary #################

----------------------------------------------------------------------------
           Layer (type)         Input Shape         Param #     Tr. Param #
============================================================================
     SelfAttentionRnn-1         [2, 21, 12]         151,680         151,680
            ConvBlock-2         [2, 12, 21]           2,496           2,496
   SqueezeExciteBlock-3         [2, 64, 19]             512             512
            ConvBlock-4         [2, 64, 19]          24,960          24,960
   SqueezeExciteBlock-5        [2, 128, 17]           2,048           2,048
               Linear-6            [2, 256]          65,792          65,792
               Linear-7            [2, 256]          32,896          32,896
          BatchNorm1d-8            [2, 128]             256             256
            LeakyReLU-9            [2, 128]               0               0
              Linear-10            [2, 128]             258             258
============================================================================
Total params: 280,898
Trainable params: 280,898
Non-trainable params: 0
Batch size: 2
----------------------------------------------------------------------------

################# training process #################

training process:   0%|          | 0/128 [00:00<?, ?it/s]epoch : 1, train loss : 0.040, valid loss : 0.030, train acc : 0.622, valid acc : 0.276, train f1 : 0.588, valid f1 : 0.265
…
:01<00:00, 127.98it/s] 99%|█████████▉| 171/173 [00:01<00:00, 100.03it/s]100%|██████████| 173/173 [00:01<00:00, 122.74it/s]
train data : 22947, disrupt : 1843, non-disrupt : 21104
valid data : 5558, disrupt : 459, non-disrupt : 5099
test data : 7124, disrupt : 571, non-disrupt : 6553

################# model summary #################

----------------------------------------------------------------------------
           Layer (type)         Input Shape         Param #     Tr. Param #
============================================================================
           NoiseLayer-1         [2, 21, 12]               0               0
     SelfAttentionRnn-2         [2, 21, 12]         151,680         151,680
            ConvBlock-3         [2, 12, 21]           2,496           2,496
   SqueezeExciteBlock-4         [2, 64, 19]             512             512
            ConvBlock-5         [2, 64, 19]          24,960          24,960
   SqueezeExciteBlock-6        [2, 128, 17]           2,048           2,048
               Linear-7            [2, 256]          65,792          65,792
               Linear-8            [2, 256]          32,896          32,896
          BatchNorm1d-9            [2, 128]             256             256
           LeakyReLU-10            [2, 128]               0               0
              Linear-11            [2, 128]             258             258
============================================================================
Total params: 280,898
Trainable params: 280,898
Non-trainable params: 0
Batch size: 2
----------------------------------------------------------------------------

################# training process #################

training process:   0%|          | 0/128 [00:00<?, ?it/s]epoch : 1, train loss : 0.043, valid loss : 0.032, train acc : 0.653, valid acc : 0.320, train f1 : 0.630, valid f1 : 0.303
…
