…
torch device avaliable :  True
torch current device :  0
torch device num :  4
train data : 13447, disrupt : 227, non-disrupt : 13220
valid data : 3119, disrupt : 57, non-disrupt : 3062
test data : 3883, disrupt : 71, non-disrupt : 3812

################# model summary #################

--------------------------------------------------------------------------------------------
   Parent Layers       Layer (type)              Input Shape         Param #     Tr. Param #
============================================================================================
           ViViT        Rearrange-1     [8, 21, 3, 128, 128]               0               0
           ViViT           Linear-2         [8, 21, 64, 768]          98,432          98,432
           ViViT          Dropout-3         [8, 21, 65, 128]               0               0
           ViViT      Transformer-4           [168, 65, 128]       1,578,240       1,578,240
           ViViT      Transformer-5             [8, 22, 128]       1,578,240       1,578,240
           ViViT           Linear-6                 [8, 128]           8,256           8,256
           ViViT        LayerNorm-7                  [8, 64]             128             128
           ViViT              ELU-8                  [8, 64]               0               0
           ViViT           Linear-9                  [8, 64]             130             130
============================================================================================
Total params: 3,263,426
Trainable params: 3,263,426
Non-trainable params: 0
--------------------------------------------------------------------------------------------

################# training process #################

training process:   0%|          | 0/50 [00:00<?, ?it/s]epoch : 1, train loss : 0.011, valid loss : 0.011, train acc : 0.983, valid acc : 0.982, train f1 : 0.504, valid f1 : 0.495
…
