…
:00<00:00, 153.19it/s] 94%|█████████▍| 163/173 [00:01<00:00, 140.40it/s]100%|██████████| 173/173 [00:01<00:00, 141.67it/s]
train data : 22973, disrupt : 1704, non-disrupt : 21269
valid data : 5570, disrupt : 428, non-disrupt : 5142
test data : 7132, disrupt : 533, non-disrupt : 6599

################# model summary #################

----------------------------------------------------------------------------
           Layer (type)         Input Shape         Param #     Tr. Param #
============================================================================
     SelfAttentionRnn-1         [2, 21, 12]         151,680         151,680
            ConvBlock-2         [2, 12, 21]           2,496           2,496
   SqueezeExciteBlock-3         [2, 64, 19]             512             512
            ConvBlock-4         [2, 64, 19]          24,960          24,960
   SqueezeExciteBlock-5        [2, 128, 17]           2,048           2,048
               Linear-6            [2, 256]          32,896          32,896
          BatchNorm1d-7            [2, 128]             256             256
            LeakyReLU-8            [2, 128]               0               0
               Linear-9            [2, 128]             258             258
============================================================================
Total params: 215,106
Trainable params: 215,106
Non-trainable params: 0
Batch size: 2
----------------------------------------------------------------------------

################# training process #################

training process:   0%|          | 0/128 [00:00<?, ?it/s]epoch : 1, train loss : 0.033, valid loss : 0.031, train acc : 0.614, valid acc : 0.245, train f1 : 0.567, valid f1 : 0.239
