…
train data : 15151, disrupt : 227, non-disrupt : 14924
valid data : 3694, disrupt : 57, non-disrupt : 3637
test data : 4263, disrupt : 71, non-disrupt : 4192

################# model summary #################

---------------------------------------------------------------------------------------------------------------
                      Parent Layers       Layer (type)              Input Shape         Param #     Tr. Param #
===============================================================================================================
   SlowFast/SlowFastEncoder/FastNet           Conv3d-1     [8, 3, 20, 128, 128]             592             592
   SlowFast/SlowFastEncoder/FastNet      BatchNorm3d-2       [8, 4, 20, 64, 64]               8               8
   SlowFast/SlowFastEncoder/FastNet             ReLU-3       [8, 4, 20, 64, 64]               0               0
   SlowFast/SlowFastEncoder/FastNet        MaxPool3d-4       [8, 4, 20, 64, 64]               0               0
   SlowFast/SlowFastEncoder/FastNet           Conv3d-5       [8, 4, 20, 32, 32]              96              96
   SlowFast/SlowFastEncoder/FastNet     Bottleneck3D-6       [8, 4, 20, 32, 32]             476             476
   SlowFast/SlowFastEncoder/FastNet           Conv3d-7      [8, 16, 20, 32, 32]           1,536           1,536
   SlowFast/SlowFastEncoder/FastNet     Bottleneck3D-8      [8, 16, 20, 32, 32]           2,032           2,032
   SlowFast/SlowFastEncoder/FastNet     Bottleneck3D-9      [8, 32, 20, 16, 16]           1,840           1,840
   SlowFast/SlowFastEncoder/FastNet          Conv3d-10      [8, 32, 20, 16, 16]           6,144           6,144
   SlowFast/SlowFastEncoder/FastNet    Bottleneck3D-11      [8, 32, 20, 16, 16]           7,512           7,512
   SlowFast/SlowFastEncoder/FastNet    Bottleneck3D-12        [8, 64, 20, 8, 8]           6,872           6,872
   SlowFast/SlowFastEncoder/FastNet          Conv3d-13        [8, 64, 20, 8, 8]          24,576          24,576
   SlowFast/SlowFastEncoder/FastNet    Bottleneck3D-14        [8, 64, 20, 8, 8]          28,840          28,840
   SlowFast/SlowFastEncoder/SlowNet          Conv3d-15      [8, 3, 5, 128, 128]           2,368           2,368
   SlowFast/SlowFastEncoder/SlowNet     BatchNorm3d-16       [8, 16, 5, 64, 64]              32              32
   SlowFast/SlowFastEncoder/SlowNet            ReLU-17       [8, 16, 5, 64, 64]               0               0
   SlowFast/SlowFastEncoder/SlowNet       MaxPool3d-18       [8, 16, 5, 64, 64]               0               0
   SlowFast/SlowFastEncoder/SlowNet    Bottleneck3D-19       [8, 20, 5, 32, 32]           5,528           5,528
   SlowFast/SlowFastEncoder/SlowNet    Bottleneck3D-20       [8, 80, 5, 32, 32]          27,304          27,304
   SlowFast/SlowFastEncoder/SlowNet    Bottleneck3D-21      [8, 128, 5, 16, 16]          18,344          18,344
   SlowFast/SlowFastEncoder/SlowNet    Bottleneck3D-22      [8, 160, 5, 16, 16]         127,304         127,304
   SlowFast/SlowFastEncoder/SlowNet    Bottleneck3D-23        [8, 256, 5, 8, 8]         104,264         104,264
   SlowFast/SlowFastEncoder/SlowNet    Bottleneck3D-24        [8, 320, 5, 8, 8]         504,456         504,456
        SlowFast/SlowFastClassifier          Linear-25                 [8, 640]         205,120         205,120
        SlowFast/SlowFastClassifier     BatchNorm1d-26                 [8, 320]             640             640
        SlowFast/SlowFastClassifier             ELU-27                 [8, 320]               0               0
        SlowFast/SlowFastClassifier          Linear-28                 [8, 320]             642             642
===============================================================================================================
Total params: 1,076,526
Trainable params: 1,076,526
Non-trainable params: 0
---------------------------------------------------------------------------------------------------------------

################# training process #################

training process - Deferred Re-weighting:   0%|          | 0/128 [00:00<?, ?it/s]epoch : 1, train loss : 0.049, valid loss : 0.032, train f1 : 0.922, valid f1 : 0.638
…
