…
 the null data: 100%|██████████| 71/71 [00:00<00:00, 139.30it/s]
# check | video data : 2798, 0D data : 2798
train data : 9174, disrupt : 860, non-disrupt : 8314
valid data : 2291, disrupt : 216, non-disrupt : 2075
test data : 2798, disrupt : 276, non-disrupt : 2522

################# model summary #################

-----------------------------------------------------------------------------------
             Layer (type)              Input Shape         Param #     Tr. Param #
===================================================================================
           ViViTEncoder-1     [8, 3, 21, 128, 128]       1,853,952       1,853,952
   TStransformerEncoder-2              [8, 21, 12]         794,752         794,752
                 Linear-3                 [8, 256]          32,896          32,896
            BatchNorm1d-4                 [8, 128]             256             256
                   ReLU-5                 [8, 128]               0               0
                 Linear-6                 [8, 128]             258             258
===================================================================================
Total params: 2,682,114
Trainable params: 2,682,114
Non-trainable params: 0
-----------------------------------------------------------------------------------

################# training process #################

training process - Deferred Re-weighting:   0%|          | 0/128 [00:00<?, ?it/s]epoch : 1, train loss : 0.127, valid loss : 0.038, train f1 : 0.758, valid f1 : 0.832
…
extract the null data:   0%|          | 0/71 [00:00<?, ?it/s]extract the null data:  77%|███████▋  | 55/71 [00:00<00:00, 547.10it/s]extract the null data: 100%|██████████| 71/71 [00:00<00:00, 544.13it/s]
# check | video data : 2790, 0D data : 2790
train data : 9147, disrupt : 860, non-disrupt : 8287
valid data : 2287, disrupt : 216, non-disrupt : 2071
test data : 2790, disrupt : 276, non-disrupt : 2514

################# model summary #################

----------------------------------------------------------------------------
      Layer (type)              Input Shape         Param #     Tr. Param #
============================================================================
           ViViT-1     [8, 3, 21, 128, 128]       1,862,466       1,862,466
   TStransformer-2              [8, 21, 12]         811,778         811,778
          Linear-3                 [8, 256]          32,896          32,896
     BatchNorm1d-4                 [8, 128]             256             256
            ReLU-5                 [8, 128]               0               0
          Linear-6                 [8, 128]             258             258
============================================================================
Total params: 2,707,654
Trainable params: 2,707,654
Non-trainable params: 0
----------------------------------------------------------------------------

################# training process #################

(multi-modal) training process with Gradient Blending:   0%|          | 0/128 [00:00<?, ?it/s]epoch : 1, train loss : 0.163, valid loss : 0.073, train acc : 0.762, valid acc : 0.944, train f1 : 0.761, valid f1 : 0.847
…
