…
0, 85.00it/s] 100%|██████████| 173/173 [00:01<00:00, 98.41it/s]
train data : 22810, disrupt : 1837, non-disrupt : 20973
valid data : 5421, disrupt : 456, non-disrupt : 4965
test data : 7398, disrupt : 580, non-disrupt : 6818

################# model summary #################

-------------------------------------------------------------------------------------------
      Layer (type)                             Input Shape         Param #     Tr. Param #
===========================================================================================
      NoiseLayer-1                             [1, 21, 12]               0               0
          Conv1d-2                             [1, 12, 21]           1,184           1,184
          Conv1d-3                             [1, 32, 21]           3,104           3,104
     BatchNorm1d-4                             [1, 32, 21]              64              64
            ReLU-5                             [1, 32, 21]               0               0
            LSTM-6     [32, 1, 21], [4, 1, 64], [4, 1, 64]         143,872         143,872
          Linear-7                            [1, 32, 128]           8,256           8,256
          Linear-8                             [1, 32, 64]           4,160           4,160
          Linear-9                                [1, 128]           8,256           8,256
    BatchNorm1d-10                                 [1, 64]             128             128
           ReLU-11                                 [1, 64]               0               0
         Linear-12                                 [1, 64]             130             130
===========================================================================================
Total params: 169,154
Trainable params: 169,154
Non-trainable params: 0
-------------------------------------------------------------------------------------------

################# training process #################

training process:   0%|          | 0/128 [00:00<?, ?it/s]epoch : 1, train loss : 0.480, valid loss : 0.404, train acc : 0.890, valid acc : 0.918, train f1 : 0.514, valid f1 : 0.518
…
